punch_kick_model_final_LSTM_model.pth (torch, 978188 bytes, 34 tensors)

lstm1.weight_ih_l0 f4 [200, 99]
00000000: 9150 8cbe a7bc e03d e13d 9c3d 69db 3dbe
00000010: 2646 2d3e f9bf 723d 14f5 4abe fe40 093e
00000020: c6cf 5b3d 0636 37be 5741 f33d 9b6e 2e3b
00000030: 32ba 2ebe 8bdd 183e f062 813d ed3b 77be
00000040: 5563 363e d53e ea3c b29e 40be bd21 1f3e
00000050: 763e 5d3d dd0b 72be 56ca 043e 5686 f13d
00000060: d688 2dbe 9f93 2e3e 3500 71bd 31e4 83be
00000070: 2e8f f53d 1928 b83c bdc1 1ebe 6e29 c03d
00000080: 00be af3c 4b3a d7bd 20c0 04bd 158e 5e3e
00000090: 19d2 8abe 5cc5 0b3e 1550 8dbe 9e5c 8bbe
000000a0: 8390 a0bc d36c b93e 20c9 1cbe 5461 d03d
000000b0: 8012 ccbe 24ee 8dbe 7a57 c5bd e1fb b13e
000000c0: 644f 4fbc 58ae 363e 344c 96be c430 4bbe
000000d0: 8e0c 89be aaec b43e 7468 a0bc fb3d fa3d
000000e0: 82d8 b8be 19e1 13be 7f4a 38be 5f8e ad3e
000000f0: c477 da3c 216e 0a3e a4db 99be 6d7d 8ebe
00000100: 118b 8dbe a344 b73e 3483 53bd a90b 3a3e
00000110: 539c 8cbe c660 dd3b 0110 1cbd b497 143e
00000120: d7ae 71bd 25db d83d 82e8 19be f950 a33e
00000130: f959 dcbd 1855 03bf 83b1 033e a05c a03d
00000140: a6d4 8cbe 3157 863e 9473 a83c cb8d 55be
00000150: 59d1 213e 2a7f 5c3d 27fc 503e 726d b03e
00000160: 1566 01be 1c15 edbd 0067 ca3d d394 d43d
00000170: e534 963e 6c61 ed3e 6293 3b3d 24e4 adbe
00000180: 871a 953e dd3a edbd 8ef5 803e fb50 1dbc
00000190: 2544 22ba 8572 403b 8639 24bc 7a4d aeb9
000001a0: 4d16 1b3b 1f3a 28bc f235 b1b9 b45c 1b3b
000001b0: f906 2cbc 15a0 b4b9 c2c8 1b3b 491f 16bc
000001c0: 343c 98b9 f65c 3f3b 932c 10bc 595e 8ab9
000001d0: 425a 3f3b 5c53 0abc a6cd 7fb9 d580 3f3b
000001e0: 773d 2abc 7b54 c3b9 9ee2 c937 f26b fabb
000001f0: ac39 80b9 8a52 ab3a 4b9d 1fbc 023e 81ba
00000200: 1db1 bc3a 3a0b 10bc fbed 73ba cf59 073b
00000210: 203a 2dbc 8786 24bb 9a14 1bba 34f4 b0bb
00000220: 8e95 0bbb ad4d da3a 84fe 4abc 7b07 18bc
00000230: 0d1d 57ba ce6d c2bb fa01 04bc e56a 7b3b
00000240: d119 55bc 9d69 78bc 0690 aeb9 6e69 14bc
00000250: eb5e 4dbc 30d8 c23b bd7a 5abc 1ffe 8cbc
00000260: 1444 6fb9 7185 1dbc 1142 68bc d56e f53b
00000270: e7e2 57bc 7de2 88bc c41c fab8 d6d0 23bc
00000280: fd01 5fbc 2959 f73b 0713 52bc 4854 84bc
00000290: 31d3 88b9 b851 21bc f391 57bc 4717 c63b
000002a0: 4777 05bc 7231 a4bc d2cd c2b9 d9ee 8cbb
000002b0: 3819 a6bc 8119 c339 c593 20bc 71b5 04bd
000002c0: 48f7 cf38 6fa5 80bb 7513 0abd de52 cf39
000002d0: 3b32 21bc aa4a 39bd 672f b8bb 74fe 81bb
000002e0: 9993 3dbd cdb3 a0bb c572 19bc edfa 3fbd
000002f0: 1179 d6bb c9ce 7bbb b2f4 43bd b2e7 c3bb
00000300: 8ad6 35bc 5b82 4ebd 7b19 5cbb 38e8 97bb
00000310: 4b13 53bd 901a f9ba 40a1 28bc 7448 64b9
00000320: 3987 ba3b 5f95 2cbc 7b6a 9db8 02e3 9a3b
00000330: 387a 2fbc 969c a0b8 7205 9b3b 083b 32bc
00000340: 236d a4b8 1525 9b3b d054 1cbc a49e 90b8
00000350: 8a33 d33b cc2b 14bc dca0 8bb8 2e30 d33b
00000360: 7b36 0bbc d378 88b8 ee7e d33b af7e 22bc
00000370: 0503 d7b8 4ef4 2d39 091c debb 459e a2b8
00000380: 98d0 903b db2e 23bc 6b4e 17ba a2c6 423b
00000390: b283 11bc 18cf 0bba 8417 a53b 4eb3 17bc
000003a0: e682 8abb eea1 84b9 aa36 21bb b1b7 21bb
000003b0: 8933 1e3b 37ae 2dbc 74c8 8abc 16d1 beba
000003c0: 5043 d1ba 6d9a 83bc 9295 b13a b7b1 4fbc
000003d0: 8ab8 ddbc 22c4 403a 6c9a 51bb 9db3 eebc
000003e0: 6eb3 b43b a466 5cbc 0c22 f8bc 4a4d ae3a
000003f0: 07a9 5abb 75c2 06bd 2ad9 f73b 5eb5 5cbc
-0.27405217 0.109734826 0.0762899 -0.1854073 0.16921291 0.05926511 -0.19820052 0.13403699
0.053664945 -0.17891702 0.11877697 0.002661622 -0.17063215 0.14928262 0.06317699 -0.24143954
0.1781133 0.028594414 -0.18810537 0.15540214 0.054014646 -0.23637338 0.1296781 0.11793201
-0.1694673 0.170485 -0.058838088 -0.25760034 0.119902 0.022480058 -0.15503593 0.09382902
0.021452904 -0.105091654 -0.032409787 0.21733887 -0.27113417 0.13649505 -0.2760016 -0.272191
-0.019600159 0.3621584 -0.15311098 0.10174814 -0.39857864 -0.2772075 -0.096358255 0.3476248
-0.012653206 0.17839944 -0.29355013 -0.19842821 -0.2676739 0.3533681 -0.019581057 0.12218853
-0.36102682 -0.14441337 -0.17997168 0.33897683 0.026668437 0.13518573 -0.30050385 -0.27830067
-0.27645162 0.35794553 -0.051638797 0.1816851 -0.27463016 0.006755921 -0.0381012 0.14510995
-0.05900463 0.105886735 -0.15030101 0.31897715 -0.107593484 -0.5130172 0.12860684 0.07830167
-0.27505988 0.26238397 0.020562924 -0.20854871 0.15802516 0.05383221 0.20408688 0.344585
-0.12636597 -0.11576292 0.09882927 0.103799485 0.2933723 0.4636339 0.045794852 -0.3396312
0.291218 -0.11583493 0.25187343 -0.009601827 -0.0006189964 0.0029365134 -0.01002348 -0.0003324559
0.0023664415 -0.010267763 -0.00033800263 0.0023706378 -0.010499709 -0.00034451546 0.0023770784 -0.009162732
-0.00029036554 0.0029199696 -0.00879969 -0.00026391706 0.0029198085 -0.008442726 -0.00024395305 0.0029221077
-0.010390631 -0.0003725624 2.4066594e-05 -0.0076422626 -0.0002445703 0.0013070863 -0.009742091 -0.0009860399
0.0014396046 -0.008791739 -0.0009305176 0.0020652895 -0.01057294 -0.0025104599 -0.00059158506 -0.005400205
-0.0021298858 0.0016655229 -0.012389783 -0.009279127 -0.0008205928 -0.0059335 -0.008057112 0.0038363275
-0.013006643 -0.015161899 -0.00033295172 -0.0090583395 -0.012534837 0.0059461817 -0.013334927 -0.017211018
-0.00022818177 -0.009614334 -0.014175908 0.007490019 -0.013176656 -0.01670956 -0.00011926287 -0.009998521
-0.013611314 0.0075484705 -0.012821919 -0.01615347 -0.0002609729 -0.009846143 -0.013157356 0.0060452553
-0.008146114 -0.020043109 -0.00037155912 -0.004300934 -0.020275697 0.000372123 -0.009800856 -0.0323996
9.916589e-05 -0.003925971 -0.033709962 0.00039543858 -0.009838636 -0.04523722 -0.005620885 -0.0039671008
-0.04628334 -0.0049042464 -0.009365742 -0.04687016 -0.006545194 -0.0038422814 -0.04784078 -0.005978548
-0.011098513 -0.050417285 -0.0033584523 -0.004635837 -0.05153207 -0.0019005109 -0.010292351 -0.00021770765
0.0056923893 -0.01053366 -7.506177e-05 0.0047267685 -0.010710292 -7.658561e-05 0.0047308737 -0.010878332
-7.840458e-05 0.004734645 -0.009541705 -6.896004e-05 0.006445353 -0.009043645 -6.657999e-05 0.0064449525
-0.008496876 -6.5074906e-05 0.00645434 -0.009917899 -0.00010252561 0.00016589576 -0.0067782444 -7.754242e-05
0.0044193976 -0.009959902 -0.0005771878 0.0029720445 -0.008881496 -0.00053332886 0.0050382037 -0.009259058
-0.00422703 -0.0002529765 -0.0024599233 -0.002467614 0.0024139604 -0.010600618 -0.016941287 -0.0014558162
-0.0015965495 -0.016064847 0.0013548604 -0.012676648 -0.027065534 0.0007353445 -0.0031982912 -0.02913838
0.0055145537 -0.013452206 -0.030289672 0.001329818 -0.0033364908 -0.032900292 0.00756373 -0.013470976

lstm1.weight_hh_l0 f4 [200, 50]
00000000: 7681 30bd 413c 5b3b b6aa 35ba 867c 0cbd
00000010: 52c9 abbc 20dc 4e3c 43c5 643c e010 bf3c
00000020: 51ee cbbb 8b83 923c 0fe3 a53b 18da a3bb
00000030: b95c 7b3e d448 9dbc 7359 493e 6fe8 2e3b
00000040: bc06 84be f5c4 25ba 59c1 be3b 94bd 9d3e
00000050: 053c 26bc c99e 3dbd 1974 913e d8ef 1ebc
00000060: f1da 5bbc f42a 833e 83ef c63b 7f11 213b
00000070: fc2a a5bb b866 713d 8cc0 093d 212f 2a3b
00000080: 240c 573e 1e32 c0bd f185 8c3e e92b 15be
00000090: 759c 273d 3efe 083d 7dd3 813e 4453 973b
000000a0: 2fed 4abb 2245 a13c 0ec9 153d 32ab e0bd
000000b0: 3fc4 903c 9ee7 de3e 2917 af3b 461f 9bbb
000000c0: bca0 cdbb 352b 3c3c b870 02bb b596 af38
000000d0: 5fe0 0c38 a13c 5eb9 0a29 6cb9 3d64 9539
000000e0: 28ff 83b8 70ab df36 e37b 0ab9 1fc6 18b8
000000f0: 6348 1539 7b98 6339 8dce 243b bf38 a9bb
00000100: 8a8f 60ba 02c7 80b6 a109 2eba 8749 2339
00000110: 5350 15b9 5b73 5aba 73eb 2e38 c2cb 95b8
00000120: ff38 853b ea03 0cba 482b 92b9 7edf abbb
00000130: 344a 29b9 b263 d7b7 2c6a 4ab9 4d83 66bb
00000140: 8ae3 2d39 f856 a5b8 4c19 c038 9a48 06b9
00000150: 723b 9ebb a3b7 a438 c492 1039 ce2d a5b8
00000160: fc71 853a 6b0e d538 85e9 3839 d59f a338
00000170: 9b7d 05bb 3781 4a38 a403 a0b8 cd2b 043c
00000180: af6c c2b8 57c4 0f39 d890 4ab9 974f 3238
00000190: afa7 94ba 4939 b8b7 475c ca35 cd47 2e38
000001a0: 1df9 c737 eded 96b8 85ea 3137 d720 81b4
000001b0: 25b7 1938 e21c 1237 fdbf 04b8 0f55 f0b7
000001c0: 8120 ea3a dfda 2abb cdf7 643c 29b9 d135
000001d0: 1088 8439 cd84 01b8 7899 ab37 8a57 553a
000001e0: e8e2 72b6 5ab2 f336 5a5b 743c 2727 d838
000001f0: 775e 6c38 35bc 12bc d3f8 f437 9442 c436
00000200: 0d2c 0d38 b131 a1ba 484a 17b7 ace0 77b5
00000210: 3a47 00bb a5a4 1637 d406 b9ba 12ae d0b9
00000220: 0e54 29b7 b5ac 1337 4a28 6c3b 0677 aeb7
00000230: a86f 59b8 6054 84b7 a589 6b3c 87c6 4db7
00000240: b955 bb37 a2ca 763c 14f8 9437 8d01 9cb7
00000250: 86fc dd37 750d 01b7 563b 12b9 ab4c a539
00000260: 5289 c338 91bb 1eb9 115d 23ba dd67 193a
00000270: d40c 60b9 59da 8a37 13ec 38ba c892 d036
00000280: 9998 9239 6f42 a639 5de1 12b9 e4b9 b9bb
00000290: 66fb bc3b 6459 7237 ee79 7eba 3a28 1a3a
000002a0: b5bd 92b9 53e5 4a39 78db c738 24d5 8337
000002b0: 1b2c f7ba 15c0 b2ba 900a d8b9 d45f 2fba
000002c0: ee1d feb8 d4f7 e1b7 8490 9cb9 f95e 35bb
000002d0: 68c3 0839 d695 4cb9 65fe a639 70dd 2db9
000002e0: 5d72 e53a 96d9 0eba e4b3 61ba 7ceb f7b7
000002f0: ddf0 8a3b 3e86 7c39 d44e 0e3a 6298 5f38
00000300: 07b6 9b39 7028 dfb7 50e3 cab8 2433 153b
00000310: 2a60 ffb8 b5e5 f039 3fd5 cab9 7d37 db38
00000320: 966d f9b8 d66a f639 05f4 4138 e7d2 09ba
00000330: cd6c 3a37 9e45 643a 663b 70b9 a01d 023a
00000340: 5af3 68ba e96b d2b8 8692 d439 c543 1e3a
00000350: 8adf c83b 6609 76bb d0ee 06bc 76c7 a935
00000360: b9de 583b 8ad8 503a 385b efb9 34f2 823a
00000370: 920a 6737 1547 77b9 b22f df3b 9100 98ba
00000380: b8c9 3fba 7fdf 20bc 921a 2a39 9d55 b8b7
00000390: fe53 06b9 afe7 4cbb f01f 9ab8 1cb7 5eb9
000003a0: 33f7 ba37 40bc d2b8 8015 12bc eba9 1a3a
000003b0: b3d8 4439 dc7c 66b9 087b b73b f497 7739
000003c0: a7a1 b639 c064 5e39 29af 24bc 7e77 9d38
000003d0: befd 9cb9 f70b ba3a 065b 94b9 ccff aa37
000003e0: 9752 d1b9 d5c7 e338 af63 60bb 2ce4 113a
000003f0: a72f ad39 ddba 32ba 402f 79ba cff7 5e3a
-0.043092214 0.0033452662 -0.000693004 -0.034298442 -0.02097002 0.012625724 0.0139630465 0.023323476
-0.006223478 0.01788499 0.005062468 -0.005000364 0.2454709 -0.019199766 0.19663028 0.0026688834
-0.25786388 -0.00063235994 0.0058213887 0.308087 -0.010146146 -0.046294007 0.28408888 -0.009700738
-0.013418899 0.25618708 0.0060710325 0.002457708 -0.0050405245 0.05893585 0.033630893 0.0025968032
0.21000725 -0.09384559 0.2744594 -0.14567532 0.040920693 0.03344559 0.25356665 0.0046180803
-0.0030964126 0.019686285 0.036568694 -0.10970153 0.017671702 0.43536085 0.005343337 -0.0047339527
-0.0062752645 0.011484911 -0.0019903611 8.372722e-05 3.3587563e-05 -0.00021194156 -0.00022522002 0.00028494178
-6.294093e-05 6.665876e-06 -0.00013206857 -3.642414e-05 0.00014236713 0.0002170521 0.0025147528 -0.0051642354
-0.0008566311 -3.837865e-06 -0.0006639008 0.00015572282 -0.0001423967 -0.00083332293 4.1704112e-05 -7.1428265e-05
0.0040656324 -0.00053411594 -0.00027879537 -0.005245148 -0.00016144739 -2.5676422e-05 -0.00019303773 -0.0035173476
0.0001658333 -7.884012e-05 9.159985e-05 -0.00012806282 -0.004828864 7.8543344e-05 0.00013787585 -7.876345e-05
0.0010181065 0.00010159317 0.000176346 7.802217e-05 -0.0020369056 4.8280894e-05 -7.630073e-05 0.008067084
-9.270885e-05 0.00013710685 -0.0001931818 4.251263e-05 -0.0011341478 -2.1961185e-05 1.5077029e-06 4.1551702e-05
2.3838651e-05 -7.1968745e-05 1.06046255e-05 -2.4052017e-07 3.664861e-05 8.709003e-06 -3.1650055e-05 -2.8649838e-05
0.001786247 -0.0026070399 0.013975096 1.5625602e-06 0.00025278376 -3.0879677e-05 2.0456253e-05 0.00081383495
-3.6192887e-06 7.262727e-06 0.014914358 0.00010306975 5.6354762e-05 -0.008956005 2.9202934e-05 5.849006e-06
3.3658045e-05 -0.0012298134 -9.017596e-06 -9.234161e-07 -0.0019573704 8.979031e-06 -0.0014116415 -0.00039802544
-1.00927555e-05 8.802094e-06 0.0036034756 -2.0797841e-05 -5.184082e-05 -1.5774916e-05 0.014376079 -1.2265175e-05
2.2332055e-05 0.01506296 1.7758495e-05 -1.8597371e-05 2.6462843e-05 -7.692132e-06 -0.0001394575 0.00031528375
9.3239025e-05 -0.00015137928 -0.00062318245 0.00058519637 -0.00021367084 1.6552558e-05 -0.0007054221 6.2159706e-06
0.00027960984 0.00031711484 -0.000140076 -0.005667912 0.0057672737 1.4445137e-05 -0.00097075 0.0005880628
-0.00027988633 0.00019349651 9.529939e-05 1.5715668e-05 -0.0018857749 -0.0013637567 -0.000412066 -0.000669
-0.00012117239 -2.6937494e-05 -0.0002986231 -0.0027675016 0.00013042765 -0.00019510774 0.00031851526 -0.00016581058
0.0017505396 -0.0005449293 -0.00086098746 -2.955435e-05 0.004240139 0.00024082602 0.00054286164 5.330926e-05
0.00029699525 -2.6602502e-05 -9.674451e-05 0.0022766078 -0.000121772595 0.00045947512 -0.00038687323 0.00010453069
-0.00011893657 0.00047000375 4.6242047e-05 -0.0005257562 1.1111796e-05 0.00087078835 -0.00022910311 0.0004963521
-0.000888636 -0.0001003368 0.0004054496 0.000603732 0.0061301636 -0.0037542223 -0.008235648 1.2649532e-06
0.0033091737 0.0007966837 -0.00045653596 0.0009990395 1.3771134e-05 -0.00023582236 0.0068111056 -0.0011596848
-0.000731613 -0.009818911 0.00016222362 -2.1974376e-05 -0.00012810525 -0.0031266024 -7.349241e-05 -0.00021239783
2.2288039e-05 -0.000100486446 -0.008916259 0.00058999535 0.00018772743 -0.00021981023 0.0055993833 0.00023612363
0.00034834185 0.00021209102 -0.010051527 7.5086005e-05 -0.0002994369 0.001419424 -0.00028296578 2.0384694e-05
-0.0003992512 0.00010861425 -0.0034239104 0.00055653113 0.00033032635 -0.0006818006 -0.0009505637 0.0008505554

lstm1.bias_ih_l0 f4 [200]
00000000: 7494 263d a8e7 12bd 6150 35bd 0fd3 34bd
00000010: df76 2cbd f5ae 42bd e4a3 1bbd 27f2 2dbd
00000020: beb7 03bd ad39 13bd 1aa2 20bd dbb9 53bd
00000030: 2540 f63d 20f3 163e d9f8 b2bc 02ac d2bc
00000040: fbe3 4f3d 74f0 43bd 177f 08bd dbe5 393c
00000050: 9a96 46bd 84d7 77bd b90e eb3d f892 d6bc
00000060: a6f7 4dbd 856b 043e 171d 2cbd c473 18bd
00000070: 165a 09bd 643f 023e fc06 4ebc efb9 2cbd
00000080: 4ee0 913d 9525 abbb 96af 4c3d 2637 1e3c
00000090: abb9 ae3c 1c80 39bd 6c38 1fbe 1259 1ebd
000000a0: 9d2b 4abd a573 d3bc 7fad a63d 2c03 673c
000000b0: 386f 2ebd 07b4 0c3e caec 2dbd 84ae 25bd
000000c0: 07f7 19bd 05da 39bd 4d06 e8bc 6294 bdbb
000000d0: 8619 66bc 2979 3dbc e82b 94bc 958e a7bc
000000e0: f194 c7bb 65bc a0bc e5df d9bb 35c0 1abc
000000f0: 85ba 04bc 4adf 8dbc 87af 42bd 33e5 58bd
00000100: 2a2a 473e 7abe 17bc fc38 973d acb2 86bc
00000110: 5a1f dcbb 6750 b3bd 2528 8ebc 79bb d6bc
00000120: ff79 e8bc f84c 7ebb f5e6 89bc 4910 a0bd
00000130: d60a 97bc 9a4a 23bc 5f98 73bc 5715 f4bc
00000140: 533b 3abc 546a 29bc fe73 62bc 484a 0dbd
00000150: fbc9 913d 31df 24be 4bbf 893c a1c2 92bc
00000160: 20a3 52bc 19d2 60bc 1e70 83bc f41d 2fbc
00000170: 4ae1 923d f8f3 a5bc 7283 85bc 9d3f 963c
00000180: 1789 2fbc 2910 8dbc 1ba2 06bc eed8 85bc
00000190: 154e 9fbd 912c 5e3b f1ff ce3a 71db f1ba
000001a0: 0e81 41bb 976f fd3b b663 95bb 5a2f 09bc
000001b0: 0915 20bb 59e1 8abc 4d08 913b 1d22 fe3b
000001c0: 8303 adbc f86a c7bc 1f3d 103b 1830 eeba
000001d0: 8302 193d 3347 9b3b 8d28 dbbb 857e 203d
000001e0: 6771 4c3b 2022 9fbc a256 653e 00e0 44bc
000001f0: 308b 47bc eb21 5e3d 5b58 913d 8386 36bb
00000200: 4b39 abbb 4381 b83d 28ef f33c b251 02bc
00000210: 4dc0 3a3d a3a6 b1bd 031e 67bd 45e9 35be
00000220: 3be5 1b3d 93ef b43a d06e 023e 2405 483b
00000230: 80f2 053c 2a69 413b 65d6 b23c 214c 6d3d
00000240: af7a 15bc aaf1 cd3b 775a 893c 0364 44bc
00000250: ef41 fcb7 6c47 b63b 75cc cd3d 76ae 21bd
00000260: 9f66 5abd 3533 34bd 7345 41bd 60ed 52bd
00000270: f7bf 28bd 321b 58bd a2da 1ebd 4576 33bd
00000280: 5013 2dbd c47c 60bd 6f58 113e 5edf dabc
00000290: 45dc 953d 0a3c 4fbd 8cdc 563d 34b1 54bd
000002a0: 4488 20bd 1304 183d 895c 58bd 21fc 53bd
000002b0: ef7e 033e 3492 e8bc 6b16 67bd f0cc dc3d
000002c0: 402f 33bd 3b7d 54bd a88c 6abd 37e5 903d
000002d0: 7833 a9bd 0dfe 47bd 1277 df3b 8372 093c
000002e0: fccf b43d 0073 053d 6b16 09be bc7e 7fbd
000002f0: 6d77 1e3d f4fe 2fbd 7996 5ebd 4169 8abd
00000300: 35ba a23d d90e ddbc 27dc 8cbd 8883 253e
00000310: e1b4 2fbd 13a2 40bd 6c39 29bd e443 59bd
0.04066892 -0.035865456 -0.04426611 -0.044146594 -0.04210555 -0.047530133 -0.037998095 -0.042467263
-0.032157652 -0.035943676 -0.039217092 -0.051690917 0.12023953 0.14741182 -0.021847175 -0.025716785
0.05075453 -0.047836736 -0.033324327 0.011346306 -0.04848347 -0.060508266 0.114774175 -0.026193127
-0.050285004 0.1293164 -0.04201993 -0.037219778 -0.03353318 0.12719494 -0.012574907 -0.042169508
0.07122861 -0.005222986 0.04997214 0.009656703 0.021328768 -0.04528819 -0.15548867 -0.038659163
-0.049358 -0.02581198 0.081385605 0.014099877 -0.042586535 0.1374055 -0.042462148 -0.040449634
-0.0375891 -0.045373935 -0.028323317 -0.005785511 -0.014044171 -0.011564531 -0.018087342 -0.02045373
-0.0060907532 -0.019621084 -0.0066490048 -0.00944524 -0.00810111 -0.017318387 -0.047530677 -0.052952956
0.19449678 -0.009261722 0.07383916 -0.01644262 -0.0067176046 -0.0875557 -0.017353127 -0.02621244
-0.028378485 -0.0038803201 -0.016833762 -0.07815606 -0.018437784 -0.009966517 -0.014867871 -0.029795332
-0.011366683 -0.010340292 -0.0138216 -0.03449467 0.07118603 -0.16100766 0.016814848 -0.017915072
-0.012856275 -0.013721966 -0.016044673 -0.010688294 0.07171877 -0.020257935 -0.01629803 0.01834088
-0.010713837 -0.01721962 -0.00821736 -0.016338792 -0.07778565 0.0033901075 0.0015792829 -0.001845224
-0.0029526385 0.00773425 -0.0045590056 -0.008373106 -0.00244266 -0.016953157 0.0044260384 0.0077555315
-0.021119839 -0.024342999 0.0022009087 -0.0018172292 0.03735591 0.004738712 -0.0066881836 0.03918316
0.0031195523 -0.019425452 0.22396329 -0.012016296 -0.012179181 0.054231565 0.070969306 -0.0027851171
-0.0052253357 0.0900903 0.029777125 -0.007954048 0.04559355 -0.086743616 -0.056425106 -0.17764767
0.038060408 0.0013804309 0.12737584 0.0030520642 0.008175492 0.0029512146 0.021830747 0.05793393
-0.009123488 0.006284912 0.01676677 -0.011986735 -3.0071444e-05 0.0055627134 0.10048763 -0.03947302
-0.053320523 -0.043994147 -0.047185373 -0.05149591 -0.041198697 -0.05276031 -0.038782723 -0.043813962
-0.042254746 -0.054806486 0.14193891 -0.026717838 0.07317404 -0.050594367 0.052456424 -0.051926807
-0.039192453 0.03711326 -0.052822623 -0.05175412 0.1284139 -0.028390028 -0.056417864 0.10781276
-0.043746233 -0.05187724 -0.057263047 0.07074969 -0.0826177 -0.048826266 0.006819614 0.008389118
0.08828732 0.032580376 -0.13387458 -0.062376723 0.038688112 -0.04296775 -0.05434272 -0.06758357
0.079456724 -0.026984619 -0.06877928 0.16163456 -0.04289711 -0.047029566 -0.041314527 -0.05304326

lstm1.bias_hh_l0 f4 [200]
00000000: 21ca 18bb b0e7 12bd 114f 35bd e42a 35bd
00000010: 90a9 2bbd 48ae 42bd 65ec 1abd 16b4 2dbd
00000020: 26b6 03bd 6c3c 07bd 28a4 20bd 03cb 53bd
00000030: 85f1 033e 8f9a 133e 6d2b bcbd 22ab d2bc
00000040: a165 9f3d 87f0 43bd 7cd7 08bd 62ea 613d
00000050: 8e96 46bd 7db4 77bd 0e2b d83d 5a93 d6bc
00000060: 0df1 4dbd f21b b13c 0330 09bd 497a 18bd
00000070: dc5a 09bd f11a 143e 4123 4ebc 9dba 2cbd
00000080: 3344 6b3d 2f10 263c 55dc e2b9 0b56 6f3d
00000090: 5a0e ae3c 0ebf 3abd b539 9fbd 685c 1ebd
000000a0: f72b 4abd f07f d3bc 25f1 443d 5dfe 8d3b
000000b0: 0a88 2ebd 9e3d 033e 66bb 30bd 74d6 26bd
000000c0: 58f7 19bd abd6 39bd 4bd6 88bd 6294 bdbb
000000d0: 8419 66bc 3c79 3dbc 94f8 93bc 958e a7bc
000000e0: 0a96 c7bb 71bc a0bc e5df d9bb 5bce 1abc
000000f0: 85ba 04bc 4adf 8dbc eacd bcbd 8145 cabd
00000100: 580d 203e 7abe 17bc eb59 993d acb2 86bc
00000110: 501f dcbb aefc 4cbc 2528 8ebc 79bb d6bc
00000120: 17f4 17ba f84c 7ebb f5e6 89bc d20f 38bd
00000130: 5621 94bc 9a4a 23bc 5f98 73bc b727 debd
00000140: 533b 3abc 546a 29bc 7d6f aebc f0de d8bc
00000150: c32a aebc 77ea 77bd 1f53 0b3d cac0 92bc
00000160: a123 9bbd 19d2 60bc 1e70 83bc 2120 2fbc
00000170: fbdd 4cbd 19cf dfbc aa83 85bc fbf1 4a3c
00000180: c18c 2fbc 3911 8dbc 1ba2 06bc eed8 85bc
00000190: 1a87 26be 9ba0 be3b 68ec 243b 0cde 93bc
000001a0: 4b3e 013c 88da e53b d58b 323c 7db7 073a
000001b0: fafd f7ba 638c e9bc 8844 6c3b 6f92 df3b
000001c0: b841 2c3e 3c3e 7c3d c9dd 023d b558 2bbb
000001d0: 13be 2bbd 82dc 093c 2d23 a9bb 4bbc 8ebd
000001e0: 2b27 603b 86c2 9ebc c480 963c 7d95 9dbc
000001f0: bb9b 3ebc 5ac7 78bc 8bae 8a3c 1451 463b
00000200: 6a58 d8bb 43ce c7bd 0b9d 0d3d 5ae9 b0bb
00000210: f10a ed3d e74c f3bd 400f 03be b168 96bd
00000220: b249 4f3d 2be0 4cbc cb8c 093e 3d43 bf3b
00000230: 5590 773c 1efc e2bb a642 b2bd 7083 a7bd
00000240: f7e2 26bc bb38 6e3e d6f5 62bc 58bc 0fbd
00000250: bcec 9b39 0306 493a cc42 613d 7dae 21bd
00000260: 9374 59bd c9dd 33bd 9c8b 3bbd 1bed 52bd
00000270: 04aa 28bd 7fd2 57bd d7d4 1ebd d1f5 1dbd
00000280: 8d18 2dbd 688c 60bd 44a3 173e 3be6 bf3d
00000290: 2ed6 cb3d a97b 4fbd b9c4 c13d 82b9 54bd
000002a0: 3e86 20bd e944 333c 715c 58bd 6f2f 54bd
000002b0: d7e1 c53d 599c e8bc b8fd 66bd 2d7f 053e
000002c0: 941e 3dbd 868d 54bd 3884 6abd 2113 803c
000002d0: b728 a9bd 66ee 47bd 2cf3 f33d 4307 df3b
000002e0: a3fe 8e3d d608 24bd baaa 46bd eeda 7ebd
000002f0: c5c7 353c a000 30bd ad96 5ebd 39c2 9fbd
00000300: 20eb c13d 16d7 53bc f8e5 8abd e9a3 1b3e
00000310: c12c 2dbd 3fba 40bd 2e66 29bd c23b 59bd
-0.0023313838 -0.035865486 -0.044264857 -0.044230357 -0.041909754 -0.04752949 -0.0378231 -0.04240807
-0.032156132 -0.033016607 -0.03921905 -0.05170728 0.12885101 0.14414428 -0.0918797 -0.025716368
0.07783056 -0.047836807 -0.033408627 0.055155165 -0.048483424 -0.06047486 0.10555087 -0.02619331
-0.050278712 0.02161977 -0.033493053 -0.037225995 -0.033533916 0.14463402 -0.012581647 -0.042170156
0.057438087 0.010135694 -0.0004327024 0.058431666 0.021247078 -0.04559236 -0.077746786 -0.038662344
-0.049358334 -0.025817841 0.048081536 0.004333301 -0.042610206 0.12816474 -0.043147467 -0.040731862
-0.0375894 -0.04537074 -0.06681498 -0.005785511 -0.014044169 -0.011564549 -0.018062867 -0.02045373
-0.006090884 -0.019621106 -0.0066490048 -0.009448613 -0.00810111 -0.017318387 -0.092189625 -0.09876538
0.1563009 -0.009261722 0.074878536 -0.01644262 -0.0067176 -0.012511415 -0.017353127 -0.02621244
-0.0005796565 -0.0038803201 -0.016833762 -0.044936962 -0.018082302 -0.009966517 -0.014867871 -0.10847419
-0.011366683 -0.010340292 -0.021293396 -0.026473492 -0.021260625 -0.060526337 0.034014817 -0.017914195
-0.07575155 -0.013721966 -0.016044673 -0.0106888125 -0.050016385 -0.027320432 -0.016298134 0.012386794
-0.010714711 -0.017220126 -0.00821736 -0.016338792 -0.16262475 0.0058174855 0.0025165323 -0.018050216
0.007888387 0.0070145763 0.010897596 0.0005177183 -0.0018920295 -0.028509324 0.003605159 0.006822876
0.16821945 0.06158279 0.031949792 -0.0026145403 -0.041929316 0.00841439 -0.005161664 -0.06969508
0.0034203033 -0.019379865 0.018371947 -0.01923632 -0.011633809 -0.015184248 0.016928932 0.0030260729
-0.0066023367 -0.09756138 0.034573596 -0.0053989114 0.115743525 -0.11879902 -0.12798786 -0.07344187
0.05060739 -0.012504618 0.13432615 0.005836873 0.015110095 -0.0069270274 -0.087041184 -0.081793666
-0.010185949 0.23263828 -0.013852557 -0.035091728 0.00029740285 0.00076684373 0.054995343 -0.039473046
-0.05308969 -0.043912683 -0.04578744 -0.051495653 -0.041177765 -0.05269098 -0.0387772 -0.038564507
-0.04225974 -0.0548214 0.14808375 0.09370085 0.09952961 -0.05065504 0.0946135 -0.051934727
-0.039190523 0.010941722 -0.052822534 -0.05180305 0.09662216 -0.028394865 -0.05639431 0.13036795
-0.04617174 -0.05189278 -0.057255 0.015634121 -0.08259719 -0.04881134 0.11911616 0.0068062856
0.06982162 -0.04004749 -0.04850266 -0.062220506 0.011094992 -0.042969346 -0.054342914 -0.07800717
0.09468675 -0.012929698 -0.06782144 0.15199246 -0.04227901 -0.047052618 -0.04135721 -0.053035505

lstm1.weight_ih_l0_reverse f4 [200, 99]
00000000: b297 88bc 5513 44ba 2cde 103c 4907 8ebc
00000010: d964 29b9 55c6 023c 8c3d 91bc c6d5 47b9
00000020: 6ae4 023c 5068 94bc d895 69b9 dbf9 023c
00000030: 75b8 83bc 1fdc dbb8 2cfc 003c b1e6 7fbc
00000040: c1d0 c0b8 b8fa 003c 49b8 78bc 5e99 bfb8
00000050: ec13 013c fa10 98bc 5b74 06ba 6454 c93a
00000060: 310f 6cbc 2656 99b9 1557 d93a f543 8dbc
00000070: 300b ecba 4d80 bc3b 89bf 80bc f2e1 d7ba
00000080: f54a bc3b aad2 a8bc c98f eebb db4c d83a
00000090: 86c5 33bc 7a77 b3bb 8842 5c37 2fe3 b5bc
000000a0: 5990 94bc 089f 893b 2010 02bc f14f 84bc
000000b0: 6b85 073a bf48 9abc 3326 c5bc ee6d b33b
000000c0: b78d 31bc e9f7 bbbc c993 843b c9a4 95bc
000000d0: 03f6 d6bc 1c78 e83b 1775 32bc 29b3 cdbc
000000e0: d344 a03b 6e80 91bc 0e88 d5bc e13f d13b
000000f0: d289 36bc 8bfe c9bc 1d2f c43b 5d45 92bc
00000100: 48e6 cfbc d87b a33b b87c 38bc 0158 c4bc
00000110: a17e 8d3b 7f5f 8dbc f0ea 00bd ceb1 2139
00000120: ee7f 36bc 595d fdbc f14d 20b9 2e07 85bc
00000130: ca62 3cbd a4a3 f3b8 9d28 2abc 38b7 39bd
00000140: d8c3 7cb9 a0a1 80bc bded 72bd 1248 e2bb
00000150: 4900 24bc 85c9 72bd f301 30bc 44cf 7bbc
00000160: 25de 79bd 1575 02bc a56b 28bc 7c2d 7abd
00000170: 3900 45bc 9869 81bc 38b0 84bd 36d6 01bb
00000180: 5166 19bc f5ce 83bd d98b 7ebb c6b6 99bc
00000190: 724d c0bb 6558 ab3b aa26 9cbc 20fb 92bb
000001a0: b9ac a13b f31c 9dbc 6bcb 94bb 28c8 a13b
000001b0: 2853 9ebc 44d8 96bb 28c2 a13b f919 97bc
000001c0: 3267 8dbb 1fd6 b23b 03ea 94bc 9d6b 8bbb
000001d0: 26ea b23b 6f95 92bc e2fb 89bb a171 b33b
000001e0: 1749 9dbc 53c7 a8bb 51c3 dc3a 6ebd 8cbc
000001f0: 73a7 9abb 26da 7b3b 9e64 9abc 7649 f1bb
00000200: e8b8 623b e62f 94bc 8646 eebb f2a5 893b
00000210: 325f 9fbc 6e55 3bbc 6029 3cb8 3f8c 7bbc
00000220: c80d 42bc 7aec 703b 47ce a5bc b204 a8bc
00000230: 6a1a 713b 9086 80bc 30a5 b6bc 0920 1d3c
00000240: 2b2d 8bbc 14aa a7bc f374 143c 2367 b8bc
00000250: d02a e8bc 4a09 553c c65c 81bc 864f abbc
00000260: e67a 4c3c bbf8 c6bc fe78 f6bc db67 6c3c
00000270: f343 82bc 64ce a8bc d381 2d3c 5b4c c7bc
00000280: 8733 eebc 0d28 6d3c 7ced 85bc 7d41 a5bc
00000290: 52e5 0a3c c850 c1bc fe14 e7bc 6c03 533c
000002a0: eded a7bc e7a3 0fbd 3e39 98b7 b96f 8bbc
000002b0: 6804 12bd f300 6737 3e3f bcbc 6a24 5abd
000002c0: 3e5a d5ba 88c1 84bc 2295 58bd 5528 4dbb
000002d0: 749c c8bc 4050 8abd 97c9 20bc ea36 8bbc
000002e0: 9662 89bd 6632 46bc 3c47 c8bc a435 8ebd
000002f0: c373 27bc ffe4 8bbc 5848 8ebd 864e 4fbc
00000300: fd58 d2bc 7c5b 96bd 8591 a6ba 2045 89bc
00000310: c38c 92bd 0056 47bb 7a82 95bc 4189 c5ba
00000320: fba1 003c e662 9bbc 607a 4aba 9537 eb3b
00000330: 42bc 9ebc 8748 4fba 7c76 eb3b 4afa a1bc
00000340: 9721 54ba b5b6 eb3b 7d0c 91bc 55bd 3eba
00000350: da5b e53b 065a 8dbc 24aa 3bba 7355 e53b
00000360: 1dca 89bc 9160 39ba d596 e53b b61e a6bc
00000370: a855 92ba 104a ca3a 65ec 84bc df58 79ba
00000380: eb90 a23a e058 9abc c73e 2dbb e88b a43b
00000390: 063d 8ebc e200 29bb 34f7 9e3b 73c1 b5bc
000003a0: d46d febb b7ef b43a d2f9 5cbc 6f73 e0bb
000003b0: 4c2d 0b38 be79 b9bc 37a7 98bc 5a0b 753b
000003c0: 2abe 2fbc 0aaa 8ebc 124d e33a 6e2b 97bc
000003d0: 48f7 acbc 63d1 a83b 116d 60bc e7d7 bdbc
000003e0: 4125 d23b 8488 90bc 1ae3 b7bc 3e41 dc3b
000003f0: d6fe 68bc 6345 cdbc a767 033c a75e 8fbc
-0.016673896 -0.00074796873 0.008842032 -0.017337458 -0.00016154665 0.007981856 -0.017729543 -0.00019057756
0.0079890285 -0.018116146 -0.00022276433 0.0079941405 -0.016079167 -0.000104837345 0.007872622 -0.015618966
-9.194157e-05 0.007872276 -0.015180656 -9.1361566e-05 0.007878285 -0.018562783 -0.00051290327 0.0015360233
-0.014407919 -0.0002924662 0.0016581739 -0.017244319 -0.0018008705 0.0057525993 -0.015716331 -0.0016470535
0.0057462403 -0.020608265 -0.007280324 0.0016502397 -0.010972386 -0.005476889 1.3128512e-05 -0.022203056
-0.018135237 0.004199866 -0.007938415 -0.0161514 0.0005169722 -0.018833516 -0.024066066 0.005475751
-0.01083701 -0.022945361 0.0040459377 -0.018267052 -0.026240354 0.0070943963 -0.010892174 -0.025109844
0.004891017 -0.017761435 -0.026065852 0.006385789 -0.011141257 -0.024657508 0.0059870617 -0.01785534
-0.025378361 0.0049891286 -0.011260204 -0.023967745 0.004318074 -0.01725745 -0.031474054 0.00015420394
-0.011138899 -0.0309283 -0.00015287824 -0.016238775 -0.04599265 -0.000116176234 -0.0103856595 -0.045340747
-0.0002410555 -0.015702069 -0.059308756 -0.006905564 -0.010009834 -0.059274215 -0.010742652 -0.01536924
-0.06100287 -0.007962485 -0.010279571 -0.061078534 -0.012023979 -0.015797421 -0.064789236 -0.0019811518
-0.009362773 -0.06435958 -0.003884068 -0.018763911 -0.005868607 0.0052290433 -0.019061405 -0.004485503
0.00493392 -0.019178843 -0.004540851 0.0049371906 -0.019326761 -0.0046034176 0.0049364753 -0.018445002
-0.0043152804 0.005457654 -0.018177992 -0.004254772 0.0054600416 -0.017893521 -0.004210935 0.005476192
-0.019199891 -0.0051507144 0.0016842877 -0.01718017 -0.0047196685 0.0038429587 -0.018846806 -0.0073634936
0.0034595076 -0.018089246 -0.0072715906 0.0042006904 -0.019454572 -0.011433942 -4.4861226e-05 -0.0153532615
-0.011844106 0.0036762045 -0.020239962 -0.020510051 0.0036789426 -0.015689164 -0.022295564 0.009590157
-0.016989311 -0.020466842 0.009061086 -0.022510117 -0.028340727 0.013002703 -0.015791308 -0.020911943
0.012480473 -0.024288526 -0.03008699 0.014429058 -0.015901541 -0.020606227 0.010590035 -0.024328401
-0.029077305 0.014474881 -0.016348593 -0.020172829 0.008477526 -0.02359809 -0.028208252 0.012879234
-0.020499194 -0.03506842 -1.8146467e-05 -0.017021047 -0.035648733 1.3768894e-05 -0.022979375 -0.053257383
-0.0016277505 -0.016205564 -0.0528766 -0.0031304557 -0.024488665 -0.06753588 -0.009813688 -0.016993959
-0.06708257 -0.012096977 -0.02444803 -0.06943825 -0.010220471 -0.017076967 -0.06947392 -0.012652999
-0.025677199 -0.07341668 -0.0012708163 -0.016756594 -0.071557544 -0.003041625 -0.018250693 -0.0015070812
0.007851119 -0.018968057 -0.0007723924 0.0071782568 -0.019376878 -0.0007907231 0.0071857553 -0.019772667
-0.00080921635 0.0071934112 -0.01770615 -0.00072761375 0.006999475 -0.01725484 -0.0007158837 0.0069987117
-0.016820008 -0.00070715795 0.007006506 -0.020278316 -0.0011164444 0.0015433449 -0.016226003 -0.0009511839
0.0012402808 -0.018841207 -0.0026435123 0.005021561 -0.017363083 -0.002578788 0.0048512463 -0.02218697
-0.0077645574 0.0013804351 -0.013487296 -0.0068496983 3.318237e-05 -0.022641059 -0.018634422 0.00373908
-0.010726491 -0.017415065 0.0017341694 -0.018453326 -0.021114007 0.005151914 -0.013697878 -0.02317424
0.0064131324 -0.01764322 -0.022447158 0.0067216447 -0.014220914 -0.0250575 0.008020318 -0.017501188

lstm1.weight_hh_l0_reverse f4 [200, 50]
00000000: de54 0538 2e42 6738 fc0d d038 a12c b437
00000010: 5504 09bc ab2d d9b9 236d f637 ab49 0436
00000020: 703f 39bc 53b7 3b38 7a24 b53c e6e6 07b8
00000030: e48d ab38 e6e5 dc39 9e57 a8b8 bc4d 8c3b
00000040: b762 9139 8d23 63b8 7bfb 033a 254c 7fbc
00000050: 84ee 0cb7 a906 71b8 2bfb 0ab9 4f3e 70b8
00000060: 9ae1 123d c55d e6b4 6f2f 8b3b 8991 3e38
00000070: b6bf eb39 9c72 4837 5f26 22b8 b186 c538
00000080: b09d 7139 7cb5 2ab8 4793 9ab7 5389 6abc
00000090: 04e4 2d39 9c9b ff37 1b86 a9b8 f516 8b38
000000a0: 98e5 0d3b d539 2239 3413 fab6 a68e be39
000000b0: f1ba 0a3b 031d 533a a4ff c938 9db7 6bbb
000000c0: d455 2a39 f3c4 4c37 57c4 8536 106e 75ba
000000d0: 17fb d3b6 506b dab7 7dfa a3bc ff2b fe38
000000e0: ee51 2fb8 396a 1437 cc9b f13c 3206 5337
000000f0: aaf2 54bb 9451 fbb8 79dd 45b6 e0c2 873b
00000100: 986b 2d38 fdc8 a2b8 db43 6938 e103 8bb8
00000110: 2ea7 a63a c56d 5abc 16d5 02b7 041e 69b8
00000120: 7cac 2b38 e413 8839 9448 9c3b 630e 77b8
00000130: a53e 103c b6c3 e0b7 840d f7ba 4de9 c037
00000140: 0216 69b6 df71 88b7 48d2 94b8 46da e236
00000150: 9f97 c538 893c 863b 8251 82b7 eb28 c6b7
00000160: ecb8 a9b6 de16 47b6 d0cf ba3b 2899 7cb8
00000170: e5b9 bcb7 ca09 0f3b aa9b 033b 3207 bbba
00000180: ba77 12b9 8cc6 b23b 6281 ebb7 aefb 6338
00000190: c6c5 3737 cfdf 1cb8 4eec 38b9 d1dd 90b7
000001a0: b258 e8bb 810a feba 636b 2237 6d68 abb8
000001b0: ce68 003c a2e9 0fb9 06bd 4f3c 259f 8737
000001c0: c170 cbb8 3fa0 f83a c2f9 cab5 51f4 fa3b
000001d0: 14e4 8bb7 c342 1239 3534 633b 15ce 44bc
000001e0: 51a6 af37 d35e df38 b1ac a237 a460 2038
000001f0: 9325 123d fefd 5236 7d36 743b 9a0c 42b6
00000200: 522c b3ba b9b9 7f37 c171 9d37 1885 29b7
00000210: 6a61 ddb9 2fe6 1c38 0bc2 5d38 a8db 2dbb
00000220: a98d 10b8 b83d ac3a db80 2c38 fdee a2b9
00000230: f729 a03a d696 3fb8 caa4 51b9 b78a e73a
00000240: 3dc6 0a3b d25f 833b 1913 b0b7 a831 62ba
00000250: d61c b5b7 cc38 b9b8 7b3e abb7 f0a5 cfba
00000260: 8289 9038 1170 6c37 0953 ae3b c3ea f73a
00000270: 9395 c6b7 a4b4 3438 86de 2abc 83a3 9938
00000280: 597e 283c 00cf feb7 dd01 8838 c127 85bb
00000290: 8514 9a37 3644 e53b da9b f437 bb8b fcb8
000002a0: c940 7cbc 8993 44bc 0162 a7b7 ec56 edb8
000002b0: 7700 8bb8 4a05 0539 7bf3 063d 7596 9db6
000002c0: ddf4 d6bb d2e8 10b7 c445 13bb 1b05 8d36
000002d0: 09e5 41b6 89e2 1637 a091 ba37 82f2 22b8
000002e0: f766 04b8 0bf8 7e3b 9b94 62b7 2f5e 5db8
000002f0: 49d4 2eb8 b2bf 63b7 1155 53bb e726 ca36
00000300: 2613 01bb e1cb 293a 9c1a a23a 3f08 913b
00000310: b2c8 9cb7 881a 123a 34aa 3b37 5a2a 9138
00000320: 318b b3ba 4cfd 423b 1cf4 8e3a 0dab 0039
00000330: dd6e 633c 15b4 bfbb 0ecc 30ba 6d59 053b
00000340: d17b acbc 7f3e da3a e854 043d 3991 9aba
00000350: a88b c6b9 305d 66bc 920c b2b9 612a b9bc
00000360: 065c 983b 8179 20bb 27b7 873d 271d 36bd
00000370: c92c b4ba 3a26 26bb 7cdf 28ba a356 cfba
00000380: 3165 8bbd 65f2 e93b 4f36 c5bc 4839 d539
00000390: 984f 9abb a69c 4d3a 258a 123a 7113 0d3b
000003a0: 0859 703c b8d6 86b8 cd27 0639 b504 36bd
000003b0: 225a 363b ad0d 5a3b 6f2d d83b 9f4f 26bb
000003c0: 040a f9bc d268 123b e412 a73b 8bea 42bc
000003d0: fec1 d7bb 5b97 01bd ef06 7a3a 9db3 27bd
000003e0: 8ca7 a73a 79d1 cb3b 1c96 f73a a5bc c93b
000003f0: da7d 003b 125c 9f39 7c00 2a3d f677 adbc
3.178871e-05 5.5136326e-05 9.920818e-05 2.1478454e-05 -0.008362849 -0.0004142349 2.9376306e-05 1.9712413e-06
-0.011306629 4.475501e-05 0.02211212 -3.240155e-05 8.1803446e-05 0.00042132958 -8.027184e-05 0.0042817276
0.00027730103 -5.4154127e-05 0.0005034727 -0.015582119 -8.400184e-06 -5.746508e-05 -0.00013254273 -5.727849e-05
0.03585968 -4.2909065e-07 0.004247598 4.543507e-05 0.0004496553 1.19476135e-05 -3.8659546e-05 9.41878e-05
0.00023042294 -4.070018e-05 -1.8426812e-05 -0.014314967 0.00016583508 3.047083e-05 -8.083527e-05 6.6323126e-05
0.002165174 0.00015471068 -7.452816e-06 0.00036345905 0.0021168555 0.00080533343 9.632044e-05 -0.0035967596
0.00016244437 1.2205203e-05 3.986566e-06 -0.0009362409 -6.3175207e-06 -2.6037596e-05 -0.020016903 0.00012119859
-4.1799554e-05 8.846219e-06 0.029493235 1.25780225e-05 -0.0032493272 -0.00011983808 -2.9484202e-06 0.004143104
4.134662e-05 -7.762199e-05 5.5614724e-05 -6.628759e-05 0.0012714618 -0.013331835 -7.798217e-06 -5.5579483e-05
4.0930216e-05 0.0002595476 0.004769394 -5.8902788e-05 0.008803998 -2.6794016e-05 -0.0018848632 2.2996823e-05
-3.4732516e-06 -1.6265489e-05 -7.096358e-05 6.7607352e-06 9.421934e-05 0.004096572 -1.5535163e-05 -2.3622493e-05
-5.05812e-06 -2.9666621e-06 0.0057010427 -6.022412e-05 -2.249791e-05 0.0021825903 0.0020081797 -0.0014269112
-0.00013968247 0.0054557975 -2.8074432e-05 5.4355412e-05 1.0953698e-05 -3.7401736e-05 -0.00017635638 -1.7269429e-05
-0.0070906514 -0.0019381793 9.680955e-06 -8.173366e-05 0.007837487 -0.00013724578 0.012679344 1.6167362e-05
-9.700796e-05 0.0018968655 -1.5122862e-06 0.0076585193 -1.6676298e-05 0.00013948516 0.003466857 -0.012012024
2.0939073e-05 0.00010651131 1.939232e-05 3.8236976e-05 0.035680365 3.1440281e-06 0.0037263923 -2.8915588e-06
-0.0013669825 1.5242426e-05 1.876883e-05 -1.0104173e-05 -0.00042224984 3.7407674e-05 5.2871223e-05 -0.002652863
-3.4464207e-05 0.0013140952 4.1128e-05 -0.00031077108 0.0012219538 -4.5678426e-05 -0.00019993182 0.0017665242
0.0021175288 0.0040092254 -2.0989728e-05 -0.0008628615 -2.159031e-05 -8.832067e-05 -2.0413883e-05 -0.00158423
6.892068e-05 1.4092789e-05 0.005319957 0.0018914569 -2.367309e-05 4.308358e-05 -0.01042903 7.326065e-05
0.01028403 -3.0375551e-05 6.4853324e-05 -0.004063577 1.8367786e-05 0.006996657 2.915964e-05 -0.00012042323
-0.015396305 -0.011998066 -1.9953588e-05 -0.00011317231 -6.628123e-05 0.00012685839 0.032947045 -4.69648e-06
-0.0065599517 -8.637277e-06 -0.0022472003 4.202722e-06 -2.8892557e-06 8.993441e-06 2.224074e-05 -3.8849663e-05
-3.1567146e-05 0.003890517 -1.350525e-05 -5.277822e-05 -4.168254e-05 -1.3574887e-05 -0.0032246748 6.024598e-06
-0.0019695251 0.00064772187 0.0012367549 0.004426032 -1.8690105e-05 0.00055734115 1.1185697e-05 6.9220274e-05
-0.0013698098 0.0029753027 0.001090649 0.00012270753 0.013881412 -0.005850325 -0.00067442737 0.0020347491
-0.021055134 0.0016650705 0.032307535 -0.0011792547 -0.00037869555 -0.014060304 -0.0003396017 -0.022603216
0.004649642 -0.0024486484 0.066267304 -0.044461396 -0.0013746257 -0.0025352375 -0.0006441993 -0.0015818666
-0.0680641 0.0071394914 -0.024073748 0.00040669204 -0.0047091953 0.0007843472 0.0005590043 0.002152648
0.014669664 -6.4296124e-05 0.00012794063 -0.044438083 0.002782472 0.0033272312 0.006597213 -0.0025377048
-0.030400284 0.002234031 0.0050986875 -0.01189674 -0.006584405 -0.031638484 0.00095377764 -0.040942777
0.0012791022 0.0062200394 0.001888934 0.0061565214 0.0019606263 0.0003039544 0.04150437 -0.021175366

lstm1.bias_ih_l0_reverse f4 [200]
00000000: 7f36 48bd 2919 50bd f4bd 50bd 2443 44bd
00000010: a810 e53d 41b8 93bd 6bf8 2abd e0db 2dbd
00000020: e06a fd3d ea73 eabc 6638 0e3e 64df 99bc
00000030: 74e0 60bd 2d8f 40ba 1f82 4bbd 5732 323d
00000040: d632 57bd 8ef9 0ebd 3219 1c3c 6c1e d43c
00000050: 045f 2ebd 7959 e9bc 1338 49bd ff7d 1fbd
00000060: 0117 5a3d fa46 1ebd a7b5 e03d c45e 59bd
00000070: b5ae 31bc 5d45 51bd a938 3cbd 9752 32bd
00000080: bd0f f1bc dde9 1bbd 949b 4bbd 95b0 fbbc
00000090: cad6 0abd 6ad4 94bd d2d3 43bd ca25 0abd
000000a0: 18bb a1bb 7688 62bd ec03 23bd af32 c23c
000000b0: 868d 95bc 2c64 37bd 430f 76bd 3c2b 113e
000000c0: 4505 5abd 0b25 3abd f19b 87bc 782f 6b3c
000000d0: 5424 91bc 736e 9abc 440a d1bd e356 02be
000000e0: ac25 2dbc 9fb8 5fbc b374 9a3d cd6b 88bc
000000f0: 8942 163c 1456 88bb 6bb3 81bc 3254 a3bd
00000100: dd8d 8cbc ade2 843c 2017 87bc 0e5c f5bb
00000110: e7bd 15be 140d 37bd 8c42 61bc 4bae b1bb
00000120: 4fb5 79bc eea4 d0bb f91e a63d acb8 51bc
00000130: bb86 a7bd fa6d 8cbc a4db 24bc a378 bfbc
00000140: d519 80bc e226 5dbc 1c2a 80bd 9bb3 ecbb
00000150: 12f1 a7bc 9671 993d bf54 1bbc 9d4a 26bd
00000160: f5b0 b4bc be29 c9bc c158 c6bd af3f 87bc
00000170: 86d8 3cbd 128b 553d 765f 90bd f88b c6bc
00000180: a4f0 c6bc b634 073d eded 8bbc 05e0 95bc
00000190: 1d0c 153c fbec 463c f3bf 283c f4b6 963b
000001a0: 02b7 003e 95d4 533d 02f8 5f3b 5e18 283c
000001b0: d055 7e3c c34e 883d 0ad1 03be bfe7 ef3c
000001c0: 0a15 453c b00e 2a3d 07c0 16bc 23cd c8bd
000001d0: 25a2 00bc ac3a 303b b12b 3bbd 72b3 a7bd
000001e0: 0821 c53b 47a6 683b b173 3abc f8b0 dbbc
000001f0: 8b25 6d3c ba4b 723c 12eb 1b3e 9c84 073c
00000200: a3de 11bd 7561 87bc f339 61ba 45fd 103c
00000210: 596c cbbd e3f0 eabb b3f0 35bd 9c4f 36bd
00000220: 24a8 873b ed1e 803d a7da 57bc 616d 133c
00000230: bd14 ef3d 0aec bb3c ebb9 fdbc b1e5 3ebd
00000240: 7ab7 5cbb 67a3 df3d 8959 023d 2ae0 b83d
00000250: 0dce 833c 573f efba ec37 55bd 7a74 a4bd
00000260: 3047 5dbd 8ec7 4ebd 3a10 cc3d d7fd e7bd
00000270: 7e97 39bd 7e4b 47bd 9dbb 023e 5a64 19bd
00000280: 218f 113e 4b66 e0bd e9c8 67bd 7e14 30bd
00000290: d8cc 67bd a53b 9b3b bc22 76bd 2ea7 1fbd
000002a0: cfa6 bbbd 95fc e83d ce32 44bd 1baf 01bd
000002b0: 86be 57bd e383 acbd 947d 723d 6d73 79bd
000002c0: e9f9 f63d 2e6e 7ebd 2199 1dbd ed97 71bd
000002d0: 3a0e 8abd 02c9 3abd 8de5 06bd 5619 27bd
000002e0: 1767 79bd 81a7 153e 250b 18bd 05cd 62bc
000002f0: acc8 8bbd aeaa 8dbd 4143 9f3d 379e 7abd
00000300: a064 cfbc 2355 92bd b3bf 57bd 4482 073c
00000310: dae1 8cbd e064 b7bc c0c1 6abd 3f2e 55bd
-0.048880097 -0.050805245 -0.050962403 -0.047915593 0.111848176 -0.07212878 -0.041740816 -0.042446017
0.123739004 -0.028619725 0.13888702 -0.018783279 -0.054901555 -0.00073455536 -0.04968464 0.04350504
-0.052538715 -0.034905963 0.009527491 0.025893413 -0.042571083 -0.028485047 -0.049125742 -0.03893852
0.053244594 -0.038641907 0.109721474 -0.05306889 -0.010844876 -0.05109154 -0.045952473 -0.043535795
-0.02942645 -0.038064826 -0.049708918 -0.03072385 -0.033896245 -0.07267077 -0.04780943 -0.033727445
-0.0049356334 -0.05530592 -0.039798662 0.023705808 -0.01825596 -0.044773266 -0.06007315 0.14176649
-0.05322768 -0.045445483 -0.01655385 0.014354579 -0.017717518 -0.018851494 -0.10207036 -0.12728457
-0.010568064 -0.013654857 0.0754179 -0.016652966 0.009171137 -0.004160652 -0.015832623 -0.07975043
-0.01715749 0.016221369 -0.016490519 -0.0074877804 -0.14623223 -0.044690207 -0.013748776 -0.0054223887
-0.015240981 -0.0063673174 0.08111376 -0.012800377 -0.08179995 -0.017142285 -0.010062132 -0.023372954
-0.015637318 -0.01349804 -0.06258032 -0.007223559 -0.020500693 0.07492368 -0.009480654 -0.0405985
-0.022057036 -0.024556037 -0.09684897 -0.016509859 -0.04610493 0.05213458 -0.07049458 -0.024236664
-0.024284668 0.033009253 -0.017081225 -0.018295297 0.009097126 0.0121414615 0.0102996705 0.0045994464
0.12569812 0.051716406 0.0034174924 0.010259716 0.015523389 0.066556476 -0.12872711 0.02928531
0.012028942 0.041517913 -0.009201056 -0.09804752 -0.007851158 0.002689044 -0.045695964 -0.08188523
0.0060159005 0.00354995 -0.011380122 -0.026817784 0.014474283 0.014788562 0.15226391 0.008271363
-0.035612714 -0.016525963 -0.0008591704 0.008849447 -0.09932775 -0.007169829 -0.044419 -0.044509515
0.004139917 0.062558986 -0.013174689 0.008998246 0.116738774 0.0229397 -0.030972442 -0.04660577
-0.0033678696 0.109198384 0.03182367 0.09027131 0.016089464 -0.001825313 -0.052055284 -0.08030029
-0.054022968 -0.05048328 0.099640325 -0.11327713 -0.04531049 -0.04865598 0.12766881 -0.03744922
0.14214756 -0.10957011 -0.056588087 -0.042988293 -0.05659184 0.004737335 -0.06009172 -0.038977794
-0.091626756 0.11376301 -0.047900014 -0.031661134 -0.05267193 -0.08423593 0.059201792 -0.060901094
0.12059385 -0.062116794 -0.038476113 -0.05898278 -0.06740995 -0.045601852 -0.03293376 -0.040795647
-0.06088933 0.14614679 -0.037120003 -0.013842826 -0.068253845 -0.0691732 0.077764995 -0.06118604
-0.025316536 -0.07145145 -0.052673053 0.008270804 -0.06879015 -0.022386968 -0.05731368 -0.052046057

lstm1.bias_hh_l0_reverse f4 [200]
00000000: 8835 48bd 3119 50bd fcbb 50bd 2443 44bd
00000010: 28c2 dd3d e408 6abc 6df8 2abd 1faf 2dbd
00000020: 9bf1 f33d be45 ecbc fcdf 163e d77a 92bc
00000030: 74e0 60bd e019 1b3d ac80 4bbd 4f2b 993c
00000040: 322c 57bd cbf2 0ebd 5587 963c b345 4b3d
00000050: 7e5d 2ebd 9659 e9bc c237 49bd 4f7d 1fbd
00000060: bf95 663d 0939 1fbd 0d8f f23d d35d 59bd
00000070: a96f a63d f745 51bd f438 3cbd 6050 32bd
00000080: f1bc e8bc 28ed 1dbd e160 4bbd 2947 243d
00000090: 7dd9 0abd 2a93 a3bd 6dd3 43bd c186 06bd
000000a0: 5e07 063d 6888 62bd 817e 83bc 6ab2 c33c
000000b0: 4179 82bc 7295 1bbd e37c 76bd 0458 e03d
000000c0: 4505 5abd eb24 3abd f19b 87bc 782f 6b3c
000000d0: 5424 91bc 736e 9abc 7359 5cbd d891 09be
000000e0: ac25 2dbc b5b8 5fbc 11ca 81bc 9ecf 84bc
000000f0: f806 1e3d 48ac 083b 6bb3 81bc 1891 aabd
00000100: dd8d 8cbc f22b 9bbb 2017 87bc 0e5c f5bb
00000110: ee10 0abe f1e7 85bd 8c42 61bc 4bae b1bb
00000120: 4fb5 79bc eaa4 d0bb de26 a63d 9984 51bc
00000130: c003 03be fa6d 8cbc 276b cbbd a378 bfbc
00000140: d519 80bc e226 5dbc c6e8 95bd 25a5 ecbb
00000150: 74ea a7bc fd94 783d bf54 1bbc 0856 0bbd
00000160: f5b0 b4bc 8327 c9bc 0c21 eabd af3f 87bc
00000170: 995a 3cbd ce86 553d 8ced 8abd d490 923c
00000180: a0f0 c6bc c0c5 c8bc eded 8bbc 05e0 95bc
00000190: 8e4c 273c a187 513c c8a6 373c 1a52 953b
000001a0: f91b b63d 9138 c33d 8f51 7f3b cde2 a3bb
000001b0: 9374 75bd 0240 05bd f53b f7bd 1f93 3a3d
000001c0: 80fd 433c 1d3f 3bbd f4fc fabb 24c4 e53d
000001d0: 3dd0 61bb f1b5 30bb 7421 943d fdce 1b3e
000001e0: 37af 0b3b 584f 653b 9ad0 3abc abc7 ecbc
000001f0: c0b4 433c dd66 95bb b2e5 d7bb f20e f33b
00000200: 5281 aabc e841 63bc 1cb4 52ba 4cd6 823c
00000210: 4fa9 da3b 9dd8 263a c4c9 b3bd 2b0d 353c
00000220: b4c7 e23a f5f9 a8bd 6f64 55bc e49a 9f3a
00000230: 79ed 0eba 24ba b63c 6005 2ebd 1ef2 44bd
00000240: 6b7f 363d d510 ad3d e3e5 183d 7095 8cbd
00000250: d039 813c a8ad 2ebb 3e3b 55bd 5174 a4bd
00000260: 5844 5dbd 92c7 4ebd 6654 e33d d65f 92bd
00000270: 7f97 39bd 8440 47bd 811d f23d fe57 94bd
00000280: be44 143e 2f80 d0bd f6c8 67bd 5f50 86bd
00000290: a5c9 67bd 4ccf 8b3c 4042 76bd 78b8 1fbd
000002a0: 1ad0 88bd b55d 193e a43d 44bd 30ae 01bd
000002b0: a1c0 57bd bb41 acbd f37e 883d 2acc 5dbd
000002c0: 3c54 f63d d06b 7ebd a031 c2bd 139e 71bd
000002d0: 660f 8abd 02c9 3abd 0550 c7bd 25f6 20bd
000002e0: 1a67 89bd 413f 433e 8d0b 18bd 4a40 98bc
000002f0: 1cca 8bbd 1ef7 92bd 6d21 663d be9e 7abd
00000300: 9192 60bc 7a86 8dbd 8c85 36bc 65d8 40bd
00000310: f3bc 8cbd 0253 0a3e 86c1 6abd 122c 55bd
-0.048879176 -0.050805274 -0.050960526 -0.047915593 0.10828048 -0.014284346 -0.041740824 -0.042403337
0.11911317 -0.02884185 0.14733881 -0.01788084 -0.054901555 0.037866473 -0.049683258 0.018697409
-0.052532382 -0.034899514 0.018375078 0.049627017 -0.04256963 -0.0284851 -0.04912544 -0.038937863
0.056295153 -0.038872752 0.11843691 -0.053067993 0.08126766 -0.051092114 -0.045952752 -0.043533683
-0.028410407 -0.038556248 -0.049652938 0.040106926 -0.03389882 -0.07987054 -0.047809053 -0.032843355
0.03272187 -0.05530587 -0.016051533 0.023888785 -0.015926959 -0.03798432 -0.060177695 0.10954288
-0.05322768 -0.045445364 -0.01655385 0.014354579 -0.017717518 -0.018851494 -0.053796243 -0.13434541
-0.010568064 -0.013654877 -0.015843423 -0.01621228 0.038580865 0.002085464 -0.015832623 -0.08328456
-0.01715749 -0.0047354633 -0.016490519 -0.0074877804 -0.1348302 -0.0653838 -0.013748776 -0.0054223887
-0.015240981 -0.0063673155 0.08112882 -0.012787961 -0.127944 -0.017142285 -0.09932547 -0.023372954
-0.015637318 -0.01349804 -0.07319789 -0.007221835 -0.020497538 0.06068896 -0.009480654 -0.034017593
-0.022057036 -0.024554973 -0.114320844 -0.016509859 -0.04598484 0.052130513 -0.0678359 0.017891325
-0.02428466 -0.024508357 -0.017081225 -0.018295297 0.010211123 0.012788684 0.011209197 0.0045569064
0.08892054 0.095322736 0.0038958525 -0.005001402 -0.059925627 -0.032531746 -0.12071983 0.04555046
0.011962295 -0.045714486 -0.007659549 0.112190515 -0.0034456395 -0.0026963914 0.07232943 0.15215679
0.0021314153 0.003498992 -0.011402274 -0.028903803 0.01194495 -0.0045593814 -0.006588661 0.007417553
-0.020813618 -0.013870694 -0.00080377026 0.015971325 0.006673015 0.00063646754 -0.08778718 0.011050503
0.0017301948 -0.082508005 -0.0130244335 0.0012176898 -0.00054522563 0.022305556 -0.042485595 -0.048082463
0.04455511 0.08450476 0.037328612 -0.068644404 0.015774637 -0.00266538 -0.05205845 -0.08029998
-0.054020256 -0.050483294 0.11100082 -0.071471855 -0.045310494 -0.04864551 0.11822034 -0.07243346
0.14479348 -0.10180699 -0.056588136 -0.06558298 -0.056588788 0.01706662 -0.060121775 -0.038994282
-0.06680317 0.14977153 -0.047910348 -0.03166026 -0.05267394 -0.084109746 0.06664839 -0.054149784
0.12027785 -0.062114537 -0.094821215 -0.058988642 -0.06741218 -0.045601852 -0.097320594 -0.03929724
-0.06709118 0.19067098 -0.03712039 -0.018585343 -0.06825659 -0.0717604 0.05618422 -0.061186545
-0.013706819 -0.06910415 -0.0111402385 -0.04708137 -0.06871977 0.13508227 -0.057313465 -0.05204398
